fp8_weights_multi.safetensors (safetensors, 173072 bytes, 3 tensors)

layer1.weight:original_weight f4 [32, 64]
00000000: 25b7 87be b9c8 3cbf a28f 0abf 86d8 f7be
00000010: 95c4 873f e0e9 0c40 bffd bc3f f488 4cbf
00000020: ec21 cebf 201d 32bf 7e39 48be 69c1 15be
00000030: 24a7 e23f da87 bbbf bbed ccbe 316a 20bf
00000040: d4fa 983f 5fd3 debe ec95 9d3f aee6 0340
00000050: 991f 6abf b508 cd3e a040 e83e 9a74 113f
00000060: a6a8 893e 45bb d3bf 88c3 fb3e 0c1e 95be
00000070: ea33 3bbf 1622 abbd db10 963f 042e 583e
00000080: 583d 003f d591 bc3f 1750 823f 6b9d b23e
00000090: 1416 febf 6fac 2b3f 4cf2 d03e 1a32 cb3f
000000a0: 01a4 5a3f 997c f33e 1f58 8ebd cd71 693f
000000b0: 3779 b63e 7a28 1dc0 2609 b2bf c12d 003f
000000c0: 13cd 1d3f 7709 63bf 9bec 893f 6af7 d7be
000000d0: 7c7d 55bf 35e8 b6be 647d a8be 74e2 b5be
000000e0: 3c49 15c0 4f2b 85bf 64dc 973f 35af 9e3d
000000f0: e596 c0be 40fd dc3f 5626 8c3f 002a 8dbe
00000100: 22d4 61be 21af dc3e 6d1f 213f 024d 2dbf
00000110: 2fbc a03d 0d9a 573f f6cf 0dc0 bc24 db3f
00000120: 6560 d83f 4c75 11c0 92a9 e73e c95a ed3e
00000130: 9ad6 9f3d b2b6 393f d7d7 4cbe f75d 3ebf
00000140: b732 2abf 0641 b03f a39f 2f40 b6c7 23bf
00000150: bc72 6abf b808 37bf de61 55bf 30ad b4be
00000160: db66 093f 4295 823e 344c dcbf 6779 a9bf
00000170: 9b59 debd 28f7 2abf 750e eabe 3e4d e63e
00000180: 4e77 7cbd 9afe db3d 8a1c b33f 75a0 0540
00000190: dab3 df3f a31f 15bf c00e e93e 03cc 0740
000001a0: 4015 643f 6bb4 0fbf 719d 6e3f 3d00 893f
000001b0: c24c dd3e b227 d9be af7a 7b3f 5f28 02bf
000001c0: 311e ab3e b9ad 5c3f ddf2 c5be 7575 1ec0
000001d0: c0ad 1fbf ccf6 86be 3b1e 18bf 8ddd 1cbf
000001e0: 44b7 f8be b6e8 a5bf f35e 103f 1e64 4abf
000001f0: 1e79 9bbf b7fa 743f a71b be3f 3657 e8bc
00000200: f543 0b40 df35 363f bd01 043f 7025 76bf
00000210: 3409 ccbe 11b3 b73f 06de e0be 289c abbf
00000220: ede4 003f f3d3 64bf 79ed 56bf 4a0c 2340
00000230: 43d7 033d c2ab 5e3e 996a 89be c099 09bd
00000240: eb76 eb3c eb64 1a3e c387 513e 97b0 313c
00000250: d582 b1be d8cc 313f a309 19c0 e68a 6dbe
00000260: bf30 84bf 6727 3f3f 7b8b 3b3e 07ed e33e
00000270: 0cbf 9f3f ade7 61bf 38da 3140 a95d 963d
00000280: 298b 19c0 03e5 0c40 f4b9 92be 94b9 0dc0
00000290: 6f0b 0cbc ed68 b3be 7781 95be 3505 87bf
000002a0: a30c 8bbd 3c72 2a40 8fae 07bf ba5a 923f
000002b0: 5a4d b1bf 69a0 fb3d 460a 52bf b3ee 8c3f
000002c0: 39f6 bf3e 8fc4 8fbf 43b7 0ebf f417 ddbf
000002d0: b665 153f ac7b af3f 4bb4 66bc 102c febe
000002e0: 45ce df3e 63e7 92bf 9821 e03b 5b6e 83bf
000002f0: a803 ce3f 673a cf3e c208 8ebe af1a eebe
00000300: 5c86 4abe c7ff 52be d00a d5be 859f d5be
00000310: 8b17 3c3e 3dbd 013e 86c3 60bf 2dcd 59bf
00000320: 93ae aebe 2692 0240 de0e 5cbf 0d92 eb3e
00000330: 1b80 0cbd e171 9c3e 0a84 b7bf 215a 0ac0
00000340: 244a 373f a505 bcbf bf1d 91bf fcff 6cbe
00000350: 7759 e63d 98a9 7a3f c23f 9fbf 712b 613e
00000360: 9f52 183f a41d d4bf 372b b6bf 8f91 83bc
00000370: 3858 063f cb79 29bf 127c 283e afd4 5dbf
00000380: aa90 cfbe 08b3 a9bf 57b0 bc3f 0403 b4bf
00000390: e826 94bf f9cb a73f 6ce0 8d3e 1c7e 1dbf
000003a0: 2173 e0bf af2b 993f 48c7 443e 3524 0240
000003b0: f50f 13bf 09a1 223f ca87 5b3f 8fec 0ebb
000003c0: 19b0 f53f d29f 6cbf 43c7 b6bf 8275 41bf
000003d0: 0bad fb3c 0095 963f 927b 9cbf 0e7d 09bf
000003e0: 028a 4cc0 baaa 5c3e 4dae d4be 2b4a 1dbf
000003f0: c47f 3c3f 460e d1bf 87ea f0bd ab6e 2a3b
-0.26506916 -0.7374378 -0.54125416 -0.48407382 1.0606867 2.2017746 1.4764937 -0.79896474
-1.6104102 -0.6957569 -0.19553182 -0.14624561 1.7707257 -1.4650834 -0.40025124 -0.62662035
1.1951547 -0.43520638 1.2311378 2.0609546 -0.91454464 0.40045705 0.45361805 0.56818545
0.2688648 -1.6541525 0.49172616 -0.29124486 -0.7312609 -0.08356111 1.1723894 0.21111304
0.50093603 1.4732004 1.0180691 0.34885725 -1.9850488 0.6705999 0.40809858 1.5874665
0.854065 0.47555998 -0.069504015 0.9118927 0.35639355 -2.4555955 -1.3909042 0.50069815
0.61641043 -0.8868632 1.0775331 -0.4218095 -0.833946 -0.35724035 -0.32908165 -0.35524333
-2.3325949 -1.0403842 1.1864133 0.07748262 -0.37615123 1.7264786 1.0949199 -0.27571106
-0.22053578 0.43102363 0.62938577 -0.6769563 0.07848393 0.8421944 -2.215818 1.7120585
1.6904417 -2.2727842 0.4524656 0.46358326 0.07804604 0.72544396 -0.20004211 -0.7436213
-0.66483635 1.3769844 2.7441185 -0.6397661 -0.9158132 -0.7149768 -0.8335246 -0.35288382
0.5367257 0.255045 -1.7210755 -1.3240174 -0.10856935 -0.6678338 -0.45714155 0.44980806
-0.061637215 0.10741921 1.3993084 2.0879185 1.7476761 -0.582514 0.45519066 2.121827
0.89094925 -0.5613467 0.93208987 1.0703198 0.43222624 -0.42413098 0.98234075 -0.5084285
0.33421472 0.8620258 -0.38661852 -2.475919 -0.62374496 -0.26360166 -0.5942113 -0.6127556
-0.4857732 -1.2961643 0.5639488 -0.79059017 -1.2146337 0.9569506 1.4852189 -0.028361898
2.1760228 0.7117595 0.5156515 -0.96150875 -0.3985077 1.4351522 -0.4391939 -1.340703
0.50349313 -0.8938591 -0.83956105 2.547625 0.03218771 0.21745208 -0.2683914 -0.033593893
0.028743228 0.1507756 0.20461945 0.010845325 -0.3467013 0.6945319 -2.3912132 -0.23197517
-1.0327376 0.746695 0.18314926 0.44516775 1.2480178 -0.88244134 2.778944 0.07342083
-2.3991187 2.2014778 -0.28657496 -2.2144518 -0.008547648 -0.3504099 -0.29200336 -1.0548464
-0.0678952 2.6632223 -0.5300073 1.1433938 -1.3851731 0.12286455 -0.82046926 1.1010345
0.3749254 -1.123186 -0.55748385 -1.7272935 0.58358324 1.3709617 -0.014081071 -0.49642992
0.4371206 -1.1476864 0.006839942 -1.0268053 1.6094866 0.40474245 -0.27741057 -0.46504733
-0.19777817 -0.20605384 -0.41609812 -0.41723266 0.18368356 0.12669845 -0.87798345 -0.850787
-0.34117565 2.0401702 -0.85960186 0.46009865 -0.03430186 0.30555633 -1.433717 -2.161751
0.71597505 -1.4689223 -1.1337203 -0.23144525 0.11247533 0.9791503 -1.2441332 0.21989228
0.5950107 -1.6571546 -1.4231938 -0.016060619 0.5247836 -0.66201466 0.16453579 -0.86652654
-0.40540057 -1.3257761 1.4741315 -1.406342 -1.1574373 1.3109123 0.27710283 -0.6152055
-1.7535135 1.1966456 0.19216645 2.03346 -0.57446223 0.6352697 0.8575407 -0.002180848
1.9194366 -0.92431366 -1.427956 -0.7556993 0.030722162 1.1764221 -1.2225211 -0.53706443
-3.1959233 0.21549502 -0.4153923 -0.61441296 0.73632455 -1.6332481 -0.117634825 0.0026005905

layer2.weight:original_weight f4 [64, 128]
00000000: b8bf 1e3e 9bbf fc3f c59c 433f c9bc edbe
00000010: a6e3 05c0 5347 2fbf 8906 9f3f 9e2e 8cbf
00000020: 0b46 9c3f 5b7b aabe dcd1 acbf 89ef f3bd
00000030: c268 863f d5d1 00bd d87c db3d 327b 05c0
00000040: 03b9 383d e177 c33e 081e 4abe c449 5d3e
00000050: 4828 e5bf 5fdd 343f c438 833e 0aad c7bf
00000060: 7d67 2cc0 fb8c 03be ee06 7c3f 72a5 86bf
00000070: 4da4 b63f 41bc 3e3f c236 b83f b257 e73e
00000080: 9451 493f 36d7 c73f 4f63 9ebe b023 dd3e
00000090: a164 cf3d 4f7f 723e 4a04 983f c9eb 72bd
000000a0: cb4a 443f d5f9 4bbe 39c6 943f 1310 053f
000000b0: e452 473f 0ff0 04c0 90aa c63e 9cea 0cc0
000000c0: 9713 253f d19d 853f 22e8 523e a399 35bf
000000d0: 927b adbe e56c 223f e837 893f 3838 813e
000000e0: eeed 27be 5593 c9be 1082 a93f 6c67 933e
000000f0: edc1 ce3f a661 b6be 0836 443f 0576 57be
00000100: 2087 ebbe a1c6 b93e fc71 11c0 2faa ab3f
00000110: 7077 503f 3c6c c9bf 3cef 283f def2 3c3f
00000120: 9ac6 d0be 9e4f 12bf 8385 fc3e 4829 ef3f
00000130: ed4d 0540 4853 33bf 88c0 a7bf 4a2c 9abf
00000140: 2acd 173f abfd 45bf 2618 963f 3af9 c6bf
00000150: 6ada 5dbe b05b 933e e0dc 28c0 cab5 5c3e
00000160: 618d 22bf bd43 953f a56e d2bf 2bf3 2e3d
00000170: a8c1 e2be 446b bcbe 51b0 dcbe 81d5 60bf
00000180: 04a7 5bbf dce6 fa3e 2ab1 833f ee08 01bf
00000190: 0aaf 27bf 213d 633f 0842 7a3e ae44 a6be
000001a0: dfba 18be 8ee1 5c3f d0c4 b03d a5a2 2a3f
000001b0: fb9b 533f 7625 53bf 0edb 00c0 da57 7d3f
000001c0: a8b9 ce3f b2a2 9ebe 26dd 0cbf a888 843f
000001d0: 86a1 abbe 2531 853e 82ec a9bf dc65 afbe
000001e0: 879c 483f 8f7d 423f 5105 ef3f b67e 363f
000001f0: 884c 4e3f c522 013e 76b3 cebd 5601 2cbf
00000200: f13d febe d9a0 16bf dc58 55bf a8f3 6d3d
00000210: c090 a23f 9808 94bf 5a32 33be 2674 b3bf
00000220: 7d85 913f 06ec cc3e ba2f 6f3f 8624 883f
00000230: 9663 ddbe cc80 293e 6797 72bf 220f b83e
00000240: 0556 6bbe aa02 6d3d a209 e4be cf20 1d3d
00000250: f176 9c3f 284b 5ebf e08d 983f 42d3 99be
00000260: 10fb c93e d81f 183f c054 2c3f 7286 70bf
00000270: d04a 123f d745 8f3e 2659 9e3f add7 b8bf
00000280: 6a69 a5be c389 603f c1c5 e7bf fc92 723f
00000290: b105 ca3f b7cf f33f 3ca4 ec3e 6ca6 6bbf
000002a0: ced0 193f 7069 2f3f cd22 ad3f 26cf f93e
000002b0: 05b4 0e3e 4961 ee3e 5cfb f5bf 900b 40bf
000002c0: b219 9d3d 7c08 ea3f b9ba bb3f f3cc 3fbf
000002d0: ccc5 d93e 9720 853f 9e2f 58bf ae4c 04bf
000002e0: 4590 32be fa80 e1be 0136 1d40 7936 963e
000002f0: decf 983f 3348 5ebf 496a adbf baff a0bf
00000300: 55f7 db3e e50c f3be 6496 fd3e 564c 683f
00000310: 3601 a1bf 123c f23f 9754 d83f d9a3 7e3e
00000320: 70ad 5c3f 28c6 513f 8033 4f3f 97a3 593f
00000330: 29ec 09c0 d492 b2bf d37e c1bd a20c 5cbf
00000340: 1ea6 bfbf 223e 5ac0 7086 6a3e ce1d b9be
00000350: dd5e d7be 3f02 c43f 6170 cd3f 75a4 16c0
00000360: 1233 b93e e3fc 39bf a21d e33e 8241 35bf
00000370: df5c ecbf fd02 c1be f245 1fbf 36c6 06bf
00000380: b11f 75bf 5003 8fbf 1e73 ba3d 6cc8 9bbf
00000390: a529 4fbe 821c 24be 056c 82bf c00d 303f
000003a0: 4c9d 55bf 91f8 c0be 4ca2 cb3e 2095 09bf
000003b0: be68 083e 6b6c 0ec0 0014 33be 0caf 9cbe
000003c0: 72dd 333f ff7b 813f 7117 a53d fced 75bc
000003d0: dc87 2d3f 257e c9be acee f1be 21ee 45bf
000003e0: 6bd0 5c3e 14e6 4ebf ff46 93be cff9 2fbe
000003f0: 03f7 8bbf f3d0 b03f ec87 21c0 4e39 dc3e
0.15502822 1.9745973 0.76411086 -0.46433094 -2.0920196 -0.6846821 1.2423869 -1.0951726
1.2208875 -0.33297238 -1.3501544 -0.11910922 1.050072 -0.03145011 0.107171714 -2.0856442
0.045098316 0.38177398 -0.19738019 0.2161017 -1.7902918 0.70650285 0.25629246 -1.5599682
-2.6938164 -0.12846749 0.98448074 -1.051924 1.4268891 0.74506 1.4391711 0.45184094
0.78640103 1.5612552 -0.3093514 0.4319129 0.10126615 0.23681377 1.1876309 -0.059306893
0.76676625 -0.19919522 1.1622993 0.5197765 0.77860856 -2.077152 0.38802004 -2.2018194
0.64483017 1.0438787 0.20596364 -0.70937556 -0.3388334 0.6344741 1.0720186 0.25238204
-0.16399357 -0.39370218 1.3242817 0.28789842 1.6152931 -0.35621375 0.76644945 -0.21041115
-0.4600153 0.36284354 -2.272582 1.3411311 0.8143225 -1.5736156 0.6599004 0.73808086
-0.4077652 -0.57152736 0.4932061 1.8684473 2.0828812 -0.7004895 -1.3105631 -1.2044766
0.5929743 -0.7734019 1.172612 -1.5544808 -0.2166535 0.2878089 -2.6384811 0.21553722
-0.6349698 1.1661297 -1.6440016 0.04271237 -0.44288373 -0.36800587 -0.4310327 -0.8782578
-0.8580172 0.49004257 1.0288441 -0.5040425 -0.65501463 0.8876515 0.24439251 -0.32474273
-0.14915036 0.8628167 0.08631289 0.66654426 0.8265988 -0.82479036 -2.01337 0.98962176
1.6150408 -0.30983502 -0.55024946 1.0354204 -0.3352167 0.26014057 -1.3275301 -0.342574
0.7836384 0.7597284 1.8673497 0.71287096 0.8058553 0.1261092 -0.10092823 -0.6718954
-0.49656633 -0.58839184 -0.83338714 0.058093697 1.2700424 -1.1565123 -0.17499676 -1.4019821
1.1368862 0.40023822 0.934322 1.0636146 -0.4324004 0.16553038 -0.9476227 0.35949045
-0.22982033 0.05786387 -0.445386 0.038361367 1.2223798 -0.8683343 1.1918297 -0.3004399
0.39449358 0.5942359 0.6731682 -0.9395515 0.57145405 0.2798297 1.2370956 -1.4440819
-0.32306987 0.8771021 -1.8107225 0.9475553 1.5782987 1.9047765 0.4621905 -0.92050815
0.60084236 0.6852026 1.3526245 0.48790854 0.1393586 0.46558598 -1.9217334 -0.7501764
0.076709166 1.8283839 1.4666358 -0.749221 0.4253372 1.0400571 -0.8444766 -0.51679504
-0.17437847 -0.44043714 2.4564211 0.29338434 1.1938436 -0.8682892 -1.3548061 -1.2578042
0.42962137 -0.47470775 0.495288 0.9074148 -1.2578495 1.8924582 1.6900815 0.2486719
0.86202145 0.8194299 0.8093796 0.85015243 -2.155039 -1.3951058 -0.09448018 -0.85956776
-1.497257 -3.4100423 0.22902846 -0.36155552 -0.42064562 1.5313185 1.604992 -2.3537877
0.36171776 -0.726515 0.44358546 -0.7080308 -1.8465842 -0.37697592 -0.62216103 -0.52646196
-0.9575148 -1.1172886 0.09103988 -1.2170539 -0.2023073 -0.160265 -1.0189215 0.6877098
-0.8344314 -0.3768964 0.3977226 -0.5374317 0.13321206 -2.2253673 -0.17488098 -0.306023
0.70259774 1.0115966 0.08061112 -0.015010353 0.6778543 -0.39354053 -0.47252405 -0.7731648
0.2156388 -0.8081982 -0.28765103 -0.17185138 -1.0934757 1.3813766 -2.523921 0.4301247

layer3.weight:original_weight f4 [128, 256]
00000000: af6a cf3f f7b4 cebd ed89 dcbf 3f31 94be
00000010: eb1c 75be d4c7 48be abae de3e 5bf1 abbf
00000020: 1961 87bf c09a 00bf fd10 2bbf 9914 113f
00000030: 6b4c 3e3f 7776 30bf 26ee 0240 80f9 8d3d
00000040: 2e40 1a3e dadf b53f 52c2 24bf 359c 82bf
00000050: d524 c23e 1d92 3f40 1b56 de3e c06e 513f
00000060: 9a61 453f 19d9 903f 910b 483f 0f73 06c0
00000070: dcb9 b93e 9281 7c3f f1ef 4cbe 0e88 bc3e
00000080: b48f abbf dc5e 01bf 0d49 c53e 05cb aabf
00000090: 5062 0b3f 1e43 043d 0e29 dfbe d141 aebf
000000a0: 0825 b13e 2560 a23f daf4 73bf 9efa febe
000000b0: b547 bf3f 280a a1bf 2044 203f 40e9 5d3f
000000c0: 6005 d9bf 9ece ffbf 5e75 1abf 2a8a d63e
000000d0: d820 72bc d889 f9bf 6b27 3d3f 1deb 7fbf
000000e0: d0c7 8f3f 02ce 6abf 89a6 f03c c4a4 45be
000000f0: 80b3 a1bf dad7 c3be 9f0b 06c0 fc63 343f
00000100: ea43 2ebf c0cd 79be 4009 113e 8035 ea3f
00000110: c077 4b3f 20f7 23bf ef94 833e 5d49 7dbe
00000120: 74a6 8a3f e6c9 15bf 9b1b 37be a712 f0be
00000130: a4d8 e33e b8f5 5dbe 04b9 55bf d75b 38bf
00000140: d3ac 893e 2bb8 c5bf f8e0 25bd 68c0 07bf
00000150: e8e8 bc3f 5cf3 653e 070e b2ba 0447 d9bc
00000160: 72c2 7f3f bfb3 abbf 042d 0c3e 5038 393f
00000170: 3100 a5bf 6209 ce3e b255 ec3e c716 403e
00000180: 16f6 c03f 8e18 1d3f e47b 29c0 f7f7 88bf
00000190: cb6e dcbf 3a5a 44bf 3d28 abbf 0be8 c03e
000001a0: 2798 1bbf 102c 963f 347b fe3e 56d7 003e
000001b0: 1e01 093f cb5e 913f 4eee 88bf 54a0 143e
000001c0: 6c68 93bf 19ba 6d3f 2118 f7bd 3755 4f3f
000001d0: 224f b33f 94f7 253f a36f 2fbf c6ff 62bf
000001e0: dd7b ef3f d319 22bf ec68 2bc0 b70b 36bf
000001f0: 05cb 383e 9fc1 d83f 201e 85bf cee2 5abd
00000200: e0a2 0c3f 4429 7e3f 15e4 0e3e 4590 c4be
00000210: e205 543f 9394 e4bf 5d13 0ebf 06d7 d33f
00000220: 5649 8cbf f715 99bd 046f fc3e a870 4bbe
00000230: 4587 083f ae76 b4bf fba0 20be 6525 47bf
00000240: 85a4 493b a6a1 353f f2b6 783f 5cd9 a2bf
00000250: 517a 09c0 6b12 04bf f8d2 803f c4b1 6ebb
00000260: d390 afbe 9be0 3b40 2acc cebc 4be0 ddbf
00000270: 4552 8d3f b69b 6ebf 9e18 bfbe 0fb2 eebf
00000280: 9615 bb3f 06fc 7fbf 7a16 c13c 74d6 b93f
00000290: a90f a83f 67f0 a2be ccbc 37be c5e4 1ebe
000002a0: ed09 693f 8029 fbbe 9f18 213f 004e 193f
000002b0: 5d9f c2bf 11e7 c53d 4cd8 423f eb4a a83f
000002c0: a2d4 a93e e3d6 c93f dc72 5cbf 069b 383f
000002d0: 19d6 81bd b9f5 f1be 9240 c73f 7c46 8ebf
000002e0: fe65 d2be 4aaa 8cbe a50c 2d3e 1754 8abe
000002f0: 79cb 98bf 558a 0abe b097 24be 38c3 f6bf
00000300: 2937 d5bf de34 96be 39c7 16bf 87cb 3bbe
00000310: 1284 65bf 3471 8d3f 2f61 58bf 524f 863f
00000320: 3554 4f3e d6a6 443e 0341 ecbe f6f2 ca3e
00000330: fd8e a13f 7e7a 323f 3cca 02bf 6182 533d
00000340: 0026 e7be 2706 a73f dbc8 73bf 5b4e 5140
00000350: ab95 963d c218 4cbf 3102 043f 7b70 6ebf
00000360: 5819 acbd 96df 6fbf 4434 343d c3e6 aa3f
00000370: fe77 e33f 0731 f4be 2d44 a5bf bea4 c2bf
00000380: 0dbf 2dbd d724 6c3e 082d bcbe c8b7 8d3f
00000390: 0bdf 96bf 3932 9fbe 0569 f4bf 48d2 37bf
000003a0: e0ff f4be cc3a ca3e 4bc2 983f c93a fe3d
000003b0: 636c 9ebe d883 1b3f 43db 33bf aea3 9cbf
000003c0: 82eb 3cbf bfe1 a13d aa46 2bbf 5aea 0440
000003d0: 7c93 8a3f 9aee 033f 44de b63f 1fbc 3f3f
000003e0: 0dda 10bf 2b68 713f e355 98be 4151 d0bf
000003f0: ce61 383f 8b7e 4b3f 64de dfbb 9247 90be
1.6204432 -0.1009311 -1.7229592 -0.28943822 -0.23936813 -0.19607478 0.43492636 -1.3433031
-1.0576507 -0.5023613 -0.668228 0.56672055 0.74335355 -0.68930763 2.0457854 0.06932354
0.15063545 1.4208939 -0.6435901 -1.0203921 0.37918726 2.993293 0.43425068 0.81809616
0.77102053 1.1316253 0.7814265 -2.1007726 0.36274612 0.9863521 -0.20013405 0.3682255
-1.340323 -0.5053537 0.38532296 -1.3343207 0.5444689 0.03229057 -0.4358601 -1.3613836
0.34598565 1.2685591 -0.9529549 -0.4980058 1.4943758 -1.2581224 0.6260395 0.86684036
-1.6954765 -1.998493 -0.6033534 0.41902286 -0.014778338 -1.9495192 0.7388827 -0.9996813
1.1232853 -0.9172059 0.029376285 -0.19301134 -1.2632904 -0.3825062 -2.0944593 0.70465064
-0.6807238 -0.24394894 0.14163685 1.8297577 0.794796 -0.6404896 0.25699565 -0.24735017
1.0832047 -0.585112 -0.17881624 -0.4688923 0.4450122 -0.21675766 -0.83485436 -0.72015136
0.26889667 -1.5446829 -0.04049775 -0.53027964 1.4758577 0.22456115 -0.0013584503 -0.02652312
0.99906075 -1.3414229 0.13689047 0.7235155 -1.2890683 0.40241534 0.4615913 0.18758689
1.50751 0.6136559 -2.6481867 -1.0700673 -1.7221311 -0.76700175 -1.3371655 0.37677035
-0.6077904 1.1732197 0.49703372 0.12582144 0.5351733 1.1357054 -1.0697725 0.14514285
-1.1516242 0.9286209 -0.12065149 0.809894 1.4008524 0.648309 -0.6852972 -0.8867153
1.8709675 -0.63320655 -2.678279 -0.71111625 0.18046196 1.6934088 -1.0399818 -0.053438954
0.5493603 0.99281716 0.13954194 -0.3839132 0.82821476 -1.7857841 -0.55498296 1.6549995
-1.095988 -0.074748926 0.49303448 -0.19867194 0.53331405 -1.4098718 -0.15686409 -0.77791435
0.0030768227 0.7094978 0.9715415 -1.2722583 -2.1480906 -0.51590604 1.0064383 -0.0036421875
-0.3429018 2.9355838 -0.025243837 -1.7334074 1.1040732 -0.93206346 -0.3732347 -1.8648089
1.4615963 -0.9999393 0.023570288 1.4518571 1.3129779 -0.31824037 -0.17943114 -0.15516956
0.9103077 -0.490551 0.62928194 0.59884644 -1.5204884 0.09663213 0.7611129 1.3147863
0.33170038 1.5768703 -0.8611276 0.72111547 -0.06339664 -0.47257784 1.556658 -1.111526
-0.4109344 -0.2747367 0.16899355 -0.2701728 -1.1937095 -0.13529332 -0.16073489 -1.9278326
-1.6657459 -0.2933721 -0.5889774 -0.18339358 -0.8965465 1.1050172 -0.8452329 1.0492957
0.20246966 0.19204268 -0.4614335 0.3963849 1.2621762 0.6971816 -0.51089835 0.05163801
-0.4514618 1.3048753 -0.95228356 3.2704074 0.07352766 -0.7972528 0.51565844 -0.9314038
-0.084032714 -0.9370054 0.043995157 1.3351673 1.7770994 -0.47693655 -1.2911431 -1.5206525
-0.04241853 0.23060928 -0.36753106 1.107171 -1.1786817 -0.31093004 -1.909455 -0.7180524
-0.47851467 0.39497983 1.1934294 0.12413556 -0.30942068 0.6074805 -0.7025644 -1.2237451
-0.73796856 0.07904386 -0.669047 2.0768037 1.0826259 0.5153595 1.428658 0.74896425
-0.5658272 0.9429957 -0.29753026 -1.6274797 0.7202424 0.79489964 -0.006831931 -0.28179604
